/home/akshayd/.local/lib/python3.10/site-packages/torch/cuda/__init__.py:619: UserWarning: Can't initialize NVML
  warnings.warn("Can't initialize NVML")
SpeedNet2(
  (batchnorm1): BatchNorm3d(8, eps=1e-05, momentum=0.1, affine=True, track_running_stats=True)
  (batchnorm2): BatchNorm3d(16, eps=1e-05, momentum=0.1, affine=True, track_running_stats=True)
  (batchnorm3): BatchNorm3d(32, eps=1e-05, momentum=0.1, affine=True, track_running_stats=True)
  (batchnorm4): BatchNorm2d(128, eps=1e-05, momentum=0.1, affine=True, track_running_stats=True)
  (batchnorm5): BatchNorm2d(2, eps=1e-05, momentum=0.1, affine=True, track_running_stats=True)
  (conv3d_1): Conv3d(1, 8, kernel_size=(1, 5, 5), stride=(1, 1, 1))
  (pool3d_1): MaxPool3d(kernel_size=(1, 1, 3), stride=(1, 1, 2), padding=0, dilation=1, ceil_mode=False)
  (conv3d_2): Conv3d(8, 16, kernel_size=(1, 5, 5), stride=(1, 1, 1))
  (pool3d_2): MaxPool3d(kernel_size=(1, 1, 2), stride=(1, 1, 2), padding=0, dilation=1, ceil_mode=False)
  (conv3d_3): Conv3d(16, 32, kernel_size=(2, 5, 5), stride=(1, 1, 1))
  (conv2d_1): Conv2d(32, 128, kernel_size=(10, 1), stride=(1, 1))
  (pool2d_1): MaxPool2d(kernel_size=(2, 2), stride=(1, 2), padding=0, dilation=1, ceil_mode=False)
  (conv2d_2): Conv2d(128, 2, kernel_size=(1, 3), stride=(1, 1))
  (pool2d_2): MaxPool2d(kernel_size=(2, 2), stride=(1, 2), padding=0, dilation=1, ceil_mode=False)
  (fc1): Linear(in_features=936, out_features=64, bias=True)
  (fc2): Linear(in_features=64, out_features=32, bias=True)
  (fc3): Linear(in_features=32, out_features=1, bias=True)
)
Evaluating
Epoch 1, Loss: 28.513153408761955
Epoch 1, Loss: 17.466010375798305
Epoch 21, Loss: 12.066111487465038
Epoch 41, Loss: 12.488065778367165
Epoch 61, Loss: 11.199211812577625
Epoch 81, Loss: 10.730563580382949
Evaluating
Epoch 101, Loss: 8.783802982277885
Epoch 101, Loss: 5.167240736539881
Epoch 121, Loss: 7.136129015209073
Epoch 141, Loss: 4.905658623415737
…
Before unsqueeze: torch.Size([2, 2, 256, 64])
After unsqueeze: torch.Size([2, 1, 2, 256, 64])
After conv3d_1: torch.Size([2, 8, 2, 252, 60])
After pool3d_1: torch.Size([2, 8, 2, 252, 29])
After conv3d_2: torch.Size([2, 16, 2, 248, 25])
After pool3d_2: torch.Size([2, 16, 2, 248, 12])
After conv3d_3: torch.Size([2, 32, 1, 244, 8])
After squeeze: torch.Size([2, 32, 244, 8])
After conv2d_1: torch.Size([2, 64, 235, 8])
After pool2d_1: torch.Size([2, 64, 234, 4])
After conv2d_2: torch.Size([2, 2, 234, 2])
After flatten: torch.Size([2, 936])
tensor([-0.0432], grad_fn=<SelectBackward0>)
SpeedNet(
  (batchnorm1): BatchNorm3d(8, eps=1e-05, momentum=0.1, affine=True, track_running_stats=True)
  (batchnorm2): BatchNorm3d(16, eps=1e-05, momentum=0.1, affine=True, track_running_stats=True)
  (batchnorm3): BatchNorm3d(32, eps=1e-05, momentum=0.1, affine=True, track_running_stats=True)
  (batchnorm4): BatchNorm2d(64, eps=1e-05, momentum=0.1, affine=True, track_running_stats=True)
  (batchnorm5): BatchNorm2d(2, eps=1e-05, momentum=0.1, affine=True, track_running_stats=True)
  (conv3d_1): Conv3d(1, 8, kernel_size=(1, 5, 5), stride=(1, 1, 1))
  (pool3d_1): MaxPool3d(kernel_size=(1, 1, 3), stride=(1, 1, 2), padding=0, dilation=1, ceil_mode=False)
  (conv3d_2): Conv3d(8, 16, kernel_size=(1, 5, 5), stride=(1, 1, 1))
  (pool3d_2): MaxPool3d(kernel_size=(1, 1, 2), stride=(1, 1, 2), padding=0, dilation=1, ceil_mode=False)
  (conv3d_3): Conv3d(16, 32, kernel_size=(2, 5, 5), stride=(1, 1, 1))
  (conv2d_1): Conv2d(32, 64, kernel_size=(10, 1), stride=(1, 1))
  (pool2d_1): MaxPool2d(kernel_size=(2, 2), stride=(1, 2), padding=0, dilation=1, ceil_mode=False)
  (conv2d_2): Conv2d(64, 2, kernel_size=(1, 3), stride=(1, 1))
  (pool2d_2): MaxPool2d(kernel_size=(2, 2), stride=(1, 2), padding=0, dilation=1, ceil_mode=False)
  (fc1): Linear(in_features=936, out_features=64, bias=True)
  (fc2): Linear(in_features=64, out_features=32, bias=True)
  (fc3): Linear(in_features=32, out_features=1, bias=True)
)
Evaluating
Epoch 1, Loss: 20.667671256642496
Epoch 1, Loss: 17.454074981412823
Epoch 11, Loss: 10.499508986206925
Epoch 21, Loss: 8.040229409069923
Epoch 31, Loss: 7.8846761881943515
Epoch 41, Loss: 7.276973134988043
Epoch 51, Loss: 5.060534390613447
Epoch 61, Loss: 8.109516372771969
Epoch 71, Loss: 10.435005690167712
Epoch 81, Loss: 12.494627474111569
Epoch 91, Loss: 7.117615311196486
…
